tudui_method1.pth (torch, 12693 bytes, 2 tensors)

weight f4 [32, 3, 5, 5]
0.011485533 0.05780458 0.021460457 -0.10244072 0.063417025 -0.1026656 -0.07511431 0.027256211
-0.03412124 -0.110204145 -0.095774926 -0.09860418 0.021003785 -0.01978695 -0.04335783 0.0622045
-0.047171757 -0.019788697 0.030314129 -0.004379216 0.018818066 -0.027759891 0.047474544 0.006840884
-0.014817996 0.0091172885 0.08912085 -0.112184994 0.01618999 -0.0015669367 -0.012402743 -0.008891045
0.038217623 0.076931015 -0.06836706 0.104578026 0.007936477 0.037205007 0.10298009 -0.08571635
-0.027703825 0.09070309 0.008658965 -0.09337794 -0.046406705 -0.08510294 0.07629334 0.031931583
-0.066150635 -0.08559021 0.026305305 0.013136257 0.072574645 0.068981595 0.0865541 0.097427316
-0.06936767 0.09609904 0.083243154 0.08262245 0.061169364 0.040492363 -0.105127476 0.054364324
-0.04097359 0.039704062 0.07804329 0.09766558 0.09840642 0.0725413 -0.029103763 0.056594435
0.058283456 -0.017002298 0.019801857 -0.058097847 -0.09088841 -0.043386504 -0.113182016 0.101536945
0.04395657 -0.014058657 -0.060719106 0.08209624 -0.0281917 0.103744976 0.09291491 0.05739979
0.05075491 -0.019262128 -0.01006591 -0.08599356 -0.106294975 0.037310753 -0.021520045 -0.018180879
0.055174977 0.05951081 -0.045812435 0.07991392 0.061034203 0.013405021 0.072669216 0.0981255
-0.09989846 -0.07837895 -0.023864489 -0.0054205735 -0.04108554 -0.10467193 -0.008485951 -0.023730556
0.08883181 0.04223274 -0.022601224 -0.09647429 0.024465501 -0.010569754 0.03998301 -0.10256483
-0.07210586 0.032522053 -0.021959014 -0.104851805 -0.013114371 -0.028940827 0.092574365 0.1018455
0.06505748 0.08887976 -0.0152624985 0.08959772 -0.04753817 -0.05592771 0.029029073 0.04849849
-0.016824575 0.014132026 0.09582574 -0.041118607 0.09853687 0.046809223 -0.016844453 -0.087236024
-0.037466023 -0.080194086 -0.035341695 0.09718832 0.019040206 -0.03500617 0.11063361 0.08159624
-0.078696445 0.014842181 0.06773929 0.097576976 -0.06276427 -0.018954325 0.049532183 -0.09941035
-0.033922706 -0.06927232 0.11243661 -0.09317258 -0.064135164 -0.09411646 -0.038967766 -0.0947129
0.06982559 0.08902243 0.044733007 -0.085121416 0.09533648 0.09300302 -0.014226165 0.02581221
-0.04672629 0.07597175 0.07904855 -0.07469677 -0.049929567 -0.10962996 -0.022353742 0.06745711
-0.08039793 -0.08864425 0.04182079 0.021403372 -0.024190791 0.042378347 -0.093549 0.009862297
0.10460303 0.01128905 -0.06297897 -0.055883702 -0.047831036 -0.019662885 0.09096568 0.07481306
-0.10059998 0.069481134 -0.05386984 0.080689535 -0.041063834 0.10404017 -0.09380118 0.09964983
0.034557387 0.11022377 -0.06919293 -0.034832414 0.056888293 -0.035952095 0.014023075 0.10802477
0.047099818 0.08686339 -0.096524864 -0.066744134 0.06920807 -0.0018927843 0.06523336 0.09770587
0.09621369 -0.09427343 0.024675626 0.112281255 0.011796831 -0.004178094 0.025643546 0.04453439
0.10320616 0.11535923 0.014256985 -0.04557313 -0.08345365 -0.06943725 0.10482752 0.085321836
0.038757466 0.015560031 0.11348255 0.08756198 0.08460271 0.0037007066 0.037142597 0.10890502
0.066895895 -0.04059402 -0.110614784 -0.029568652 -0.10628606 -0.087572604 -0.06010802 -0.06511346
00000000: d12d 3c3c 7fc4 6c3d d7cd af3c 71cc d1bd
00000010: c9e0 813d 5842 d2bd 88d5 99bd 6b48 df3c
00000020: b7c2 0bbd b6b2 e1bd a525 c4bd fdf0 c9bd
00000030: 2110 ac3c 3e18 a2bc fb97 31bd 25ca 7e3d
00000040: 2c37 41bd e81b a2bc 5655 f83c 877f 8fbb
00000050: 5828 9a3c b668 e3bc ab74 423d 7f29 e03b
00000060: 2ec7 72bc ae60 153c fe84 b63d 3fc1 e5bd
00000070: dfa0 843c ac61 cdba e034 4bbc bfab 11bc
00000080: 158a 1c3d 028e 9d3d 0704 8cbd 012d d63d
00000090: ff07 023c 4764 183d 3ae7 d23d 0e8c afbd
000000a0: 22f3 e2bc 8bc2 b93d 55de 0d3c ef3c bfbd
000000b0: f514 3ebd 734a aebd af3f 9c3d b1ca 023d
000000c0: fc79 87bd ec49 afbd 397e d73c 7539 573c
000000d0: 04a2 943d 3946 8d3d 4743 b13d f987 c73d
000000e0: a310 8ebd 93cf c43d 637b aa3d f635 a93d
000000f0: ba8c 7a3d 52db 253d 134d d7bd 20ad 5e3d
00000100: ecd3 27bd baa0 223d 29d5 9f3d e404 c83d
00000110: 4e89 c93d 8890 943d 046b eebc 91cf 673d
00000120: a2ba 6e3d 6748 8bbc 8137 a23c 02f8 6dbd
00000130: b423 babd 0cb6 31bd f9cb e7bd 9af2 cf3d
00000140: ce0b 343d 4856 66bc 99b4 78bd 1322 a83d
00000150: 48f2 e6bc 3f78 d43d 2c4a be3d 0b1c 6b3d
00000160: 61e4 4f3d 9ccb 9dbc 7deb 24bc 641d b0bd
00000170: 2eb1 d9bd 29d3 183d ce4a b0bc 11f0 94bc
00000180: 28ff 613d 9bc1 733d d2a5 3bbd e9a9 a33d
00000190: 00ff 793d bca0 5b3c 99d3 943d 06f6 c83d
000001a0: 9097 ccbd 2585 a0bd 767f c3bc 119f b1bb
000001b0: 5049 28bd 3d5e d6bd a908 0bbc 9566 c2bc
000001c0: 74ed b53d 3dfc 2c3d 3426 b9bc 5094 c5bd
000001d0: e06b c83c c32c 2dbc 3ac5 233d 820d d2bd
000001e0: 3dac 93bd d835 053d 64e3 b3bc 8bbc d6bd
000001f0: a9dd 56bc 5015 edbc a197 bd3d 6094 d03d
00000200: db3c 853d 9706 b63d 8f0f 7abc 027f b73d
00000210: 62b7 42bd 7414 65bd 61ce ed3c 5aa6 463d
00000220: b1d3 89bc 038a 673c 4940 c43d fc6b 28bd
00000230: b3cd c93d 07bb 3f3d 61fd 89bc cda8 b2bd
00000240: f975 19bd cc3c a4bd 74c2 10bd ab0a c73d
00000250: 35fa 9b3c a162 0fbd e093 e23d ee1b a73d
00000260: 9a2b a1bd 9e2c 733c e6ba 8a3d 70d6 c73d
00000270: 8e8a 80bd 1a46 9bbc 42e2 4a3d a797 cbbd
00000280: 89f2 0abd a5de 8dbd 2a45 e63d 44d1 bebd
00000290: 4c59 83bd 21c0 c0bd aa9c 1fbd d6f8 c1bd
000002a0: b800 8f3d 6451 b63d f539 373d 2354 aebd
000002b0: c63f c33d 5e78 be3d dc14 69bc 2174 d33c
000002c0: 1164 3fbd 1497 9b3d 35e4 a13d 9ffa 98bd
000002d0: f282 4cbd ac85 e0bd 321f b7bc f426 8a3d
000002e0: aca7 a4bd 1e8b b5bd 474c 2b3d 2056 af3c
000002f0: c42b c6bc eb94 2d3d 9e96 bfbd 7995 213c
00000300: 1d3a d63d b5f5 383c 1efb 80bd 4fe6 64bd
00000310: 7aea 43bd 0f14 a1bc 374c ba3d 9737 993d
00000320: 5d07 cebd 204c 8e3d 9fa6 5cbd 8e40 a53d
00000330: 8d32 28bd 0313 d53d d51a c0bd 3615 cc3d
00000340: 0c8c 0d3d 00bd e13d 06b5 8dbd 6fac 0ebd
00000350: b303 693d 8142 13bd 0ac1 653c 173c dd3d
00000360: bdeb 403d 6fe5 b13d d4ae c5bd 26b1 88bd
00000370: f6bc 8d3d 4d17 f8ba 1199 853d 041a c83d
00000380: af0b c53d 6e12 c1bd 8a24 ca3c b7f3 e53d
00000390: 7f47 413c 65e8 88bb 6a12 d23c b169 363d
000003a0: c05d d33d 7641 ec3d 2196 693c e4aa 3abd
000003b0: bfe9 aabd 1e35 8ebd d0af d63d 37bd ae3d
000003c0: 26c0 1e3d 80ef 7e3c 8a69 e83d b253 b33d
000003d0: 3044 ad3d 8e87 723b d622 183d 9809 df3d
000003e0: b700 893d ea45 26bd 018a e2bd f539 f2bc
000003f0: 81ac d9bd 4459 b3bd d433 76bd 355a 85bd

bias f4 [32]
0.063767955 0.07746964 0.08237226 0.03860474 -0.07269871 -0.10682711 0.080274366 -0.1094921
0.05705049 -0.0958726 -0.02319991 -0.041593652 -0.10437275 0.042024076 0.022822967 -0.07251214
-0.01180787 0.10082167 0.11263708 -0.091717266 0.079376206 0.04586151 -0.052370448 -0.006014345
-0.041883077 -0.06426378 -0.043558855 0.112868436 -0.108285934 0.092391506 0.074377686 -0.05832146
00000000: c698 823d 67a8 9e3d cab2 a83d 0120 1e3d
00000010: 10e3 94bd 2cc8 dabd e366 a43d 653d e0bd
00000020: c6ad 693d db58 c4bd bd0d bebc 1b5e 2abd
00000030: 61c1 d5bd 7021 2c3d 3bf7 ba3c 3f81 94bd
00000040: cc75 41bc 977b ce3d 45ae e63d 43d6 bbbd
00000050: fe8f a23d 47d9 3b3d 6582 56bd fc13 c5bb
00000060: 978d 2bbd bb9c 83bd c56a 32bd 9127 e73d
00000070: 04c5 ddbd c237 bd3d 5453 983d 7ce2 6ebd
